android/app/src/main/assets/mobile_model.pt (torch, 97995 bytes, 6 tensors)

cpu f4 [128]
000000 0d ee c1 3d c0 bd 6b 3e bd 0c 78 3e 39 9d 0f 3e
       0.09469233 0.23021603 0.2422361 0.1402482
000010 52 61 04 3f 65 6d 0d bd 7c a2 5b 3e d9 a6 69 be
       0.51711 -0.034528155 0.21448702 -0.22817554
000020 5d 57 2d 3e 14 7e 1d be 01 fd 3d bd 6d 97 0b 3f
       0.16927858 -0.15380126 -0.04638386 0.5452793
000030 a1 87 2a 3e 82 00 28 3f dc f8 88 bc d6 2c 1a bf
       0.16653301 0.65625775 -0.016720228 -0.60224664
000040 5d 93 40 3e c5 b1 b9 be c6 aa 82 3e d6 e3 65 3e
       0.18806215 -0.3626844 0.25520915 0.22450194
000050 3b 71 23 3e 6a 74 c2 be f5 1c c3 3e ba a5 ba 3d
       0.15961163 -0.37979442 0.3810803 0.09113641
000060 a0 b0 03 3f 43 7e 11 bf ec b3 47 3e a2 33 4e be
       0.51441383 -0.56833285 0.19502228 -0.20136884
000070 bd 9b 88 3e 4e 8d d1 be bf f8 95 3e e6 85 7e 3e
       0.2668132 -0.4092812 0.2929134 0.24855766
000080 fd b8 76 3e 66 f0 86 3e c2 45 c9 3e af f1 4e 3e
       0.24094005 0.26355284 0.39311033 0.20209382
000090 98 fb aa be ec a6 5e 3e 6e af 00 bd d6 bb be 3c
       -0.33395076 0.21743363 -0.031417303 0.023282927
0000a0 19 72 eb be 51 05 43 b9 2d df b9 be 93 48 1f be
       -0.45985487 -0.0001859863 -0.36303082 -0.15555029
0000b0 51 99 7a 3e 96 e5 03 bf d9 fe 6a 3e 31 74 1b 3e
       0.24472548 -0.51522195 0.22948779 0.15181042
0000c0 87 68 0f be d4 55 e7 3c 40 eb 42 be 9d 3c 95 be
       -0.14004718 0.028239168 -0.19035053 -0.29147807
0000d0 48 d5 17 be 91 ca f5 3b 2a 2c 69 3e 09 5e 18 be
       -0.14827454 0.0075009544 0.22770754 -0.14879622
0000e0 5a a0 c7 3e a3 e4 92 be b6 f6 0a 3f 4e 57 a9 be
       0.38989526 -0.2869006 0.542827 -0.3307442
0000f0 57 a2 49 3e ff 89 36 3e ee 10 31 3e fe b1 21 be
       0.19690834 0.17826079 0.17291614 -0.15790555
000100 d9 81 ef 3e e6 8b be 3b 9d 6d 56 bd e0 01 44 3d
       0.46778753 0.005815017 -0.05235063 0.04785335
000110 53 f2 92 3d 3c a4 9e bd 5f 52 13 3e 6b 60 3f 3e
       0.07175126 -0.07746169 0.14386891 0.18689124
000120 32 5a d8 bd 9b c0 88 3d f2 07 d2 be 51 2c ce 3e
       -0.105640784 0.066773616 -0.41021687 0.40268186
000130 3e 88 0c 3f d4 2e 26 3e d0 b1 08 bd da 40 09 3e
       0.5489539 0.16228801 -0.0333727 0.13403645
000140 43 6b 7c bc ba 44 63 3c 3d 6b 80 3e 15 c4 ac be
       -0.015406433 0.013871366 0.25081816 -0.3374335
000150 8b 03 0f 3f ee 86 cf bd ea c9 09 bf 7d 50 76 3d
       0.5586478 -0.10133158 -0.5382372 0.060135353
000160 10 0a 34 3c 44 f5 56 3d 80 74 75 3b ea 8f a5 be
       0.010988727 0.052479997 0.0037453473 -0.3233636
000170 c3 8f eb 3d 93 29 31 be a2 99 4d be b2 e9 c9 bc
       0.1150203 -0.17301016 -0.20078138 -0.024647567
000180 b1 74 db bd 2c ac 48 3d 25 fa d0 3e d0 51 ea 3e
       -0.107156165 0.04899232 0.40815845 0.45765543
000190 de 3a 1f be 80 bf 78 3e 8b 1e da bd e7 82 77 be
       -0.155498 0.24291801 -0.10650357 -0.24171029
0001a0 69 48 2f 3d 46 71 c1 3e 33 2d 23 bd 15 57 41 be
       0.042793665 0.37781733 -0.039838027 -0.18880875
0001b0 14 79 c3 3c a6 0b 3a 3e 85 2a 06 3d ca e0 e1 3e
       0.023861445 0.18168506 0.032755394 0.44116813
0001c0 db bf 0c 3f 52 95 82 3d 0d 36 e1 3d 27 61 09 3e
       0.5498025 0.06376137 0.109966375 0.13415967
0001d0 56 3a 60 3e 50 e3 c5 3e e3 44 9b 3d e8 18 b8 bd
       0.21897253 0.38649988 0.075814985 -0.089891255
0001e0 f4 a5 db 3e e9 31 08 3f 0e 67 90 3e f2 67 4b 3e
       0.4290005 0.53201157 0.28203624 0.1986387
0001f0 ae 12 3b 3e 04 3c 86 3d c7 ea a1 3a 3a ab 00 bf
       0.18268844 0.06554416 0.0012353294 -0.5026127

cpu f4 [10]
000000 1a 41 5a 3f f2 be be 3f 3c c6 8a be 5a a9 2e bc
       0.8525559 1.4902022 -0.27104366 -0.010660494
000010 49 c8 6a be cd d1 e1 be ee 62 a3 be 3f b6 82 bc
       -0.22927965 -0.44105378 -0.31911415 -0.015956042
000020 3c 30 c0 bd f7 93 d2 be
       -0.093842 -0.41128513

prepack_folding._jit_pass_packed_weight_0 f4 [32, 1, 3, 3]
000000 47 25 95 3d 2d 79 07 3e 9e 6e 32 be 9b 02 c7 3b
       0.07282501 0.13229819 -0.1742501 0.0060733086
000010 c1 ed 83 be 36 35 5b bd af 02 88 be ca e4 0d 3c
       -0.2576733 -0.053517543 -0.26564547 0.008660505
000020 26 0d fa 3d a4 52 0d bf 2c 10 87 3e 6e 27 59 be
       0.12209539 -0.55204225 0.26379526 -0.21206447
000030 f6 e2 8b 3e 4f 42 80 be 59 89 92 be 05 df 7b be
       0.27321595 -0.2505059 -0.28620413 -0.24596794
000040 e0 93 80 bd f1 2a 5f bd eb b8 ee 3d 6e 25 3f be
       -0.06278205 -0.05448431 0.11656364 -0.18666622
000050 f0 91 74 be d5 a6 fd 3d cc c2 a3 be 12 1a 3e 3e
       -0.23883796 0.12385336 -0.31984556 0.18564633
000060 b7 72 a5 be 86 d8 f3 bd 10 3c 62 3d 71 58 14 be
       -0.32314083 -0.11906533 0.05523306 -0.14486863
000070 7c 2d d1 bb a6 80 79 be 53 5c 43 3e fb 16 f9 bd
       -0.006383596 -0.24365482 0.19078188 -0.12162586
000080 c5 08 16 3d 0b 2f 23 3e 92 f7 ed bd 84 d8 81 3e
       0.036629457 0.15935914 -0.11619486 0.253605
000090 d2 08 39 3e be 65 27 3e 90 21 c7 bc 66 a8 d2 be
       0.18069771 0.16347405 -0.024307996 -0.41144103
0000a0 30 00 b2 bd 00 39 8a bd ad 9f b3 3d e3 b5 fe 3d
       -0.08691442 -0.06749153 0.0877069 0.12437036
0000b0 d7 d1 49 3e 8a cb 55 bd d6 96 0b 3e 3b ec cf 3d
       0.19708954 -0.052196063 0.13631758 0.10152479
0000c0 c1 6c 29 3e 9a 74 40 3d e5 e8 a5 be 09 0c 82 be
       0.16545393 0.0469862 -0.32404247 -0.25399807
0000d0 f8 08 93 be 25 81 52 3e 95 e1 54 be b4 d5 ca bd
       -0.2871778 0.20557077 -0.20789178 -0.09904042
0000e0 88 f6 25 bd 90 5b 52 3c 03 c5 bb 3e 81 8b d8 be
       -0.040518314 0.012839213 0.36673746 -0.42293933
0000f0 1a 20 87 3d 1a ba b4 be 6a a1 af bc a3 65 0f be
       0.0659792 -0.35298234 -0.021439273 -0.14003615
000100 70 1d 1c be 59 5d ab bd 4b ff a2 3e 70 60 77 bd
       -0.15245605 -0.08367414 0.31835398 -0.060394704
000110 0c 83 bb bd c6 78 0d be 1d 24 62 3e ad c6 10 3e
       -0.091558546 -0.13815603 0.22084089 0.14138289
000120 9a 1b 5e 3e 39 db 23 bd 91 13 63 be 5d 1d 9b 3c
       0.21690217 -0.04000399 -0.22175433 0.0189349
000130 b7 cb 1b be 7f 58 1b 3d eb a6 69 3d 68 43 5b 3e
       -0.1521443 0.037926193 0.05704395 0.21412432
000140 39 f8 78 3d 58 26 8c 3b 62 bf 68 3e 03 97 80 bd
       0.0607836 0.004277032 0.22729257 -0.06278803
000150 ec 38 b1 bc ad 42 28 bd 8d 04 fc 3d d6 8e 3f be
       -0.021633588 -0.041079212 0.123055555 -0.18706831
000160 bf 82 c7 bd 4d 18 51 3e 6f 24 ad 3d 50 e3 68 be
       -0.09741735 0.20419426 0.08454215 -0.22742963
000170 46 23 a5 bd 65 fb fd 3d a8 c3 38 bc 49 b4 89 be
       -0.080633685 0.12401465 -0.011277117 -0.2689536
000180 12 97 aa 3d fa 31 77 be 3d 3f dd be 2d 0a b3 be
       0.083295956 -0.24140158 -0.4321231 -0.349687
000190 62 dd 7d bd 11 82 e0 3d 7b e8 46 bd 06 85 5a be
       -0.061978705 0.10962308 -0.048561554 -0.21339807
0001a0 bd 6f 61 3e 62 5d 6c 3c ce b1 24 be 92 c8 8a be
       0.22015281 0.014426561 -0.16083452 -0.27106148
0001b0 ad be bf be 36 a1 cb 3d f2 af 1e 3e 52 b9 a3 bd
       -0.37450162 0.09942858 0.15496805 -0.079943314
0001c0 f2 33 76 bd c2 3e 4d be ad 26 f0 bd 93 f2 40 be
       -0.060108133 -0.20043471 -0.11726127 -0.18842535
0001d0 f6 30 83 be 4d e8 6c be 91 ec 2a be 5c f2 88 be
       -0.25623292 -0.2313549 -0.16691805 -0.26747406
0001e0 d3 a1 ab be 28 92 75 3e 6b 2b 69 3e 96 19 80 be
       -0.335219 0.23981535 0.22770469 -0.2501952
0001f0 bb ec c5 bd b0 c4 c4 bd a6 c6 eb bd 95 8a 76 bd
       -0.096642934 -0.09607828 -0.115124986 -0.060190756
000200 4d e9 34 3e d4 60 34 be 6d 5f db 3d ec c7 38 bd
       0.17667122 -0.17615062 0.107115604 -0.045112535
000210 1e 8b 9c bd 59 b7 0b 3e b8 2b c6 38 15 59 a0 bc
       -0.07643722 0.1364416 9.449519e-05 -0.019573728
000220 a8 a2 9f be c6 c9 f2 be 2c 6a 97 be 43 b8 bb 3d
       -0.31178784 -0.47419566 -0.2957319 0.091660045
000230 f4 4b 86 3d 81 9b 8e be d4 58 2d 3e 8d 03 92 3c
       0.06557456 -0.27853015 0.16928416 0.017823959
000240 c6 08 3d bd f3 8d 01 bd c1 92 7c 3e 47 9b ba 3d
       -0.046150945 -0.031629514 0.24665357 0.09111648
000250 59 6e 77 3d 90 c3 4b be 09 b5 21 3e 4d 0e 0a bd
       0.06040797 -0.1989882 0.15791716 -0.033705045
000260 7e ca da bd b3 89 67 be 84 25 ae 3e ce 1f 81 be
       -0.106831536 -0.22611122 0.34012997 -0.25219578
000270 59 84 0a be 8b d8 fa bc 1d 2d 6b be bd e7 a3 be
       -0.13527049 -0.030620834 -0.22966428 -0.3201274
000280 4d 69 82 3e 6a 52 29 bd fe 06 7d be 0a f6 76 bd
       0.25470963 -0.04133836 -0.24709699 -0.060293235
000290 b0 6b 09 3e a2 90 df bc 51 dc 03 3d 14 64 2a 3e
       0.13419986 -0.027290646 0.032192532 0.1663974
0002a0 0a 25 6e be b8 d3 ea bd 55 58 88 3d b2 8c 6b be
       -0.23256317 -0.114661634 0.06657473 -0.2300289
0002b0 a1 b8 22 3e f3 02 d8 bd 41 3e 7c be b8 19 e3 be
       0.15890743 -0.105474375 -0.24633123 -0.4435556
0002c0 4e 0c 79 be 6e a1 72 3d 77 79 82 3e 0a 36 4c be
       -0.243211 0.059235983 0.25483295 -0.1994249
0002d0 71 bc 8b be 5c 76 96 3e 00 ce 96 be d5 6d 9d be
       -0.27292207 0.29387176 -0.2945404 -0.30747858
0002e0 df b8 47 be 06 d1 8e bd b8 39 40 3e 6a 2e ad be
       -0.19504116 -0.06973462 0.18772018 -0.33824474
0002f0 c9 07 23 bd 2c ea 78 bc 63 24 23 be fa b2 2c be
       -0.039802346 -0.01519255 -0.15931849 -0.16865149
000300 00 52 19 3e 6a ed 7c 3e 8b 4d 28 be 8e c1 eb be
       0.14972687 0.24699941 -0.1643583 -0.46046108
000310 1d 98 9e 3d e2 c2 7d bd 14 b4 02 be ed 32 fd bb
       0.07743857 -0.061953433 -0.12764007 -0.007727018
000320 9e 46 98 bd 27 38 99 be 44 04 95 3e 1a f2 1e 3e
       -0.07435344 -0.29925653 0.29104817 0.15522042
000330 98 12 86 be e9 34 5f be 3d 62 b5 be b8 34 c2 be
       -0.2618606 -0.21797527 -0.35426512 -0.37930846
000340 87 2f 55 bc fe f1 64 bd a0 8d 35 3d 3c 9a 19 bd
       -0.01301182 -0.055894844 0.044324517 -0.037500605
000350 14 e9 16 be be 34 84 be a0 b8 dc bd 04 e8 67 3e
       -0.1473735 -0.2582149 -0.10777402 0.226471
000360 1a b3 83 3d cb 43 be 3d 85 ee 05 3e 64 35 11 be
       0.06430645 0.09290274 0.13079269 -0.14180523
000370 3a 30 50 3d c3 33 ae 3d a3 ea 86 be 51 1c a5 bd
       0.050827242 0.085059665 -0.2635089 -0.080620416
000380 eb 45 a5 be 30 ee e6 3d 3f ea d4 3c 5d 04 05 3e
       -0.32279906 0.112758994 0.025990603 0.12989946
000390 67 6a 03 be ac fc 8a be 96 76 2f be 86 5f fd 3d
       -0.12833558 -0.27145898 -0.1713508 0.12371735
0003a0 7b ba 13 bc 35 85 13 3e 24 58 ca 3d 20 27 14 3e
       -0.009016628 0.14406283 0.09880093 0.1446805
0003b0 8a 88 52 bd 1f f0 03 bf 3f e1 01 3e db cf 83 be
       -0.051399745 -0.5153827 0.12683581 -0.2574452
0003c0 07 6e 24 3c e0 57 62 be 2c 1b 6c be 80 30 6e be
       0.010035998 -0.22103834 -0.2305724 -0.23260689
0003d0 95 a3 12 be f9 76 52 bd 2e b5 d4 3d 24 d0 5a bd
       -0.14320214 -0.051382992 0.1038612 -0.053421155
0003e0 7c b8 a4 be 98 25 57 3e 39 57 8a bd 21 0f b7 be
       -0.32172 0.21010435 -0.06754918 -0.3575373
0003f0 78 7e 2b be 14 0e 36 be 7e e7 74 be 95 f2 b0 be
       -0.16747463 -0.17778808 -0.23916432 -0.34560075

prepack_folding._jit_pass_packed_weight_0 f4 [32]
000000 b8 07 1d bf aa 82 f4 be c2 00 cf be 26 ad 33 bf
       -0.613399 -0.4775594 -0.40430266 -0.7018608
000010 6e 2a 7d bf 33 5d 09 bf 09 51 f3 be 53 26 2f bf
       -0.9889287 -0.53657836 -0.47522762 -0.68417853
000020 6c ec 60 bf d0 08 5a bf 6a d3 06 bf 8a 6b f6 be
       -0.8786075 -0.85169697 -0.5266634 -0.4812892
000030 a0 77 00 bf b3 64 08 bf 72 ef fb be e6 36 fe be
       -0.50182533 -0.53278655 -0.4920612 -0.4965126
000040 8b ce 41 bf 93 9a c6 be ee 6d 02 bf 42 17 e5 be
       -0.75705785 -0.38789806 -0.5094899 -0.44744307
000050 63 64 e5 be f3 82 e2 be 44 3b 17 bf 36 b8 af be
       -0.4480315 -0.4424053 -0.5907481 -0.3432023
000060 89 28 08 bf 74 52 d0 be 05 03 b3 be 42 0b ea be
       -0.5318685 -0.40687907 -0.3496324 -0.45711714
000070 c2 e4 bd be 2f c4 b1 be 9a 15 8c bf a8 a2 e9 be
       -0.3708859 -0.3471999 -1.0944092 -0.4563191

prepack_folding._jit_pass_packed_weight_1 f4 [16, 32, 5, 5]
000000 09 f4 49 3e d3 fb 52 3e 6c ae 19 3e 1d fb 22 3e
       0.19721998 0.20603876 0.15007943 0.15916105
000010 2a 63 f1 bc 46 e8 5f 3b 36 9d ea be a0 ea ef 3b
       -0.02946623 0.0034165545 -0.45823067 0.0073216707
000020 fb ab 0f 3d 0b e1 b2 3d a6 c2 d3 bd ae ad e4 3d
       0.035076123 0.0873433 -0.103398606 0.11165939
000030 bd f0 72 be 7d ab 61 3e 90 65 09 3e e3 0b fa bd
       -0.23724647 0.22038074 0.1341765 -0.122092985
000040 ee ef ef bc a8 3b f8 3d d5 04 09 be c2 51 a8 bc
       -0.029289212 0.121207535 -0.1338075 -0.020546798
000050 bf d5 8d 3e 60 dd 11 be 5c 0a a3 3e cb 42 ad be
       0.27702138 -0.14244604 0.3184384 -0.33840021
000060 6a c8 e4 bd 6a bd 4a 3e 8d 05 a2 bd 67 6d e2 be
       -0.111710384 0.19798818 -0.07911215 -0.44224092
000070 b0 f5 24 bf 79 0c 12 bf 3c 66 09 bf 93 ef 41 3e
       -0.6443739 -0.5705028 -0.5367162 0.18939047
000080 4c 3a 38 3e d8 61 71 bd 3c c3 b9 be ca 66 db 3d
       0.17990988 -0.0589312 -0.36281765 0.10712965
000090 a2 95 ff bd e8 9b c5 3d a6 91 03 be b0 df 13 be
       -0.12479712 0.096488774 -0.12848529 -0.14440799
0000a0 cb 12 a6 bc 9e 78 f6 be 4c 5e bc be e7 e5 32 be
       -0.020272633 -0.481389 -0.36790693 -0.17470513
0000b0 18 8a 8d 3e ff f3 87 3e 18 e4 50 bc 50 ff bb be
       0.2764442 0.26553342 -0.012749694 -0.36718225
0000c0 42 3a 08 bf 22 21 2e 3e 77 77 be 3d 80 0a 32 be
       -0.53213894 0.17004827 0.0930013 -0.17386818
0000d0 9f 0e 7a be d1 56 9a be 3a db d5 be a7 4a 4e be
       -0.2441964 -0.3014436 -0.4176882 -0.20145665
0000e0 c6 08 04 bf e8 51 5b bc b7 50 e2 3e 8d 99 16 be
       -0.5157589 -0.013386227 0.44202206 -0.14707012
0000f0 5c 2a 55 3e 0b d9 0e be a9 40 3f 3e dd ee ca bd
       0.2081694 -0.13949983 0.1867701 -0.09908841
000100 c3 fb 80 3e 34 2e 03 3e cf e5 e6 3d ae 17 85 3e
       0.2519208 0.12810594 0.11274301 0.2599463
000110 62 f1 c2 3d 00 76 3f 3d 3c a0 86 3e 18 f7 19 3e
       0.09518696 0.046743393 0.26294124 0.15035665
000120 d6 9b b5 3d 1a ff 2b 3e 58 33 4c be 84 94 53 be
       0.08867614 0.16796532 -0.19941461 -0.20662123
000130 6b 7c 29 be 35 00 4b bd b6 86 c1 3c 3f 77 e6 3d
       -0.16551368 -0.049560744 0.023623805 0.11253213
000140 99 36 34 be ca e9 e8 bd 84 00 53 be 5a 10 5b be
       -0.17598952 -0.11372717 -0.20605665 -0.21392956
000150 ce f3 2a be 0b 9d 9f 3e 62 60 1f 3e 05 08 2c bc
       -0.16694567 0.31174502 0.15564111 -0.010499959
000160 dc 8c 87 be 06 7e d4 be ef 29 65 3d 3b 6c d2 be
       -0.26474655 -0.41502398 0.055948194 -0.41098198
000170 5b bd 2d 3e bb b9 89 be eb c5 d7 be 05 e1 f1 bc
       0.16966765 -0.26899514 -0.42143187 -0.029526243
000180 c4 97 8c bb fa d6 84 bd a1 d5 d8 be ed fa 20 be
       -0.004290553 -0.06486316 -0.42350486 -0.1572072
000190 8b de 13 3e cc 7e 32 be be e8 b0 3e 3a de 23 be
       0.14440362 -0.17431182 0.34552568 -0.16002741
0001a0 72 88 da 3e d1 0e a5 be 21 16 a0 3e 48 09 03 3e
       0.42682225 -0.32237867 0.31266883 0.1279651
0001b0 1f b4 31 be 29 b0 85 3c bc 1e 89 3e 65 87 60 3d
       -0.17353867 0.016319351 0.2678126 0.054816622
0001c0 23 3d 88 3d 6d 1a 8b 3e cc 44 0b bd bb fb ff 3d
       0.06652286 0.271686 -0.034001157 0.12499186
0001d0 e6 7c 25 be d2 73 9c 3e ca 14 0c be 16 b6 25 bf
       -0.16160926 0.30557114 -0.13679805 -0.64730966
0001e0 34 09 01 3d 70 64 59 be 97 8a 89 be ca 91 0d be
       0.031502917 -0.2122972 -0.26863548 -0.13825145
0001f0 6d 45 47 3d f2 d9 ae be 47 e3 80 3e c6 3a 45 3e
       0.048650194 -0.34150654 0.251734 0.19260702
000200 aa 2b 0e 3d 0d 8b 59 be bf 70 79 be cf 42 9f 3d
       0.03470961 -0.2124445 -0.24359415 0.077764146
000210 a1 5c 89 3c 16 12 e2 3d 9e 14 23 bf 01 f7 b1 3d
       0.016767802 0.11038606 -0.63703334 0.086896904
000220 3f a6 8d be 7b f4 c5 be fb 78 82 be c3 93 dc bd
       -0.27665898 -0.38663086 -0.25482926 -0.10770371
000230 35 81 28 be 74 b1 da bd 97 af 1b be 87 12 40 3e
       -0.16455539 -0.10678378 -0.15203701 0.18757068
000240 13 3a 93 3d fa 7c 6e 3e a8 fa e1 3c a6 8c cd bc
       0.07188811 0.23289862 0.027585343 -0.02509148
000250 7e 3e 81 be 3c 05 38 3b 4b 5c 2f be e8 49 9f 3e
       -0.2524299 0.0028079292 -0.1712505 0.31111073
000260 ab 70 a0 3d 48 2a 8e 3e 49 f3 b1 bc 09 12 79 3b
       0.0783399 0.27766633 -0.021722453 0.0038005135
000270 7f 5e 06 be e4 04 2c 3e 21 99 12 bd cf 51 c7 bd
       -0.13121985 0.1679874 -0.035790566 -0.097324006
000280 6f 06 e4 3c 38 88 ce be a4 88 2b be 80 39 16 be
       0.027835099 -0.40338302 -0.16751343 -0.14670372
000290 c0 68 de bd e7 df e3 be c6 2f 8a be a6 42 30 bf
       -0.10859823 -0.4450676 -0.26989573 -0.688517
0002a0 db d7 38 3d 8e af 74 3e 77 a5 7a 3d 78 8e 5d bd
       0.04512773 0.23895094 0.061192956 -0.054090947
0002b0 68 ef 3a be f3 75 1b 3e 0c 44 35 be f7 18 b8 3d
       -0.18255389 0.15181713 -0.17701739 0.08989137
0002c0 21 d6 76 3d 5c 61 68 bd 05 1a 7f bd 77 dd ce 3d
       0.060262803 -0.056733474 -0.062280674 0.10100835
0002d0 4b 7a bf 3e cf 37 8a 3d 40 e4 28 be d5 61 e7 be
       0.3739799 0.06748926 -0.1649332 -0.45191827
0002e0 21 78 11 bd 99 b6 1b 3e 94 d3 0d be 83 00 b9 bd
       -0.035514954 0.15206374 -0.13850242 -0.09033301
0002f0 2a 98 40 be d0 85 da be 8d c1 97 bd 64 1b e4 be
       -0.18808046 -0.42680216 -0.07409964 -0.44552147
000300 43 85 11 be 41 40 f6 3d 8d e9 81 be 43 4d b0 be
       -0.14210992 0.12023974 -0.25373498 -0.34433946
000310 6c 97 b5 bd c8 93 43 be d8 3a 09 3c 4d 02 2d 3e
       -0.08866772 -0.19099343 0.008375846 0.16895409
000320 8d 57 60 3e 53 94 27 bd 1a 45 a0 bc b0 91 2d 3e
       0.21908398 -0.040912937 -0.0195642 0.16950107
000330 c2 00 e8 3e 29 79 d7 bc d9 5b d1 3d 5e ac 4d 3d
       0.45313078 -0.02630289 0.10222597 0.05021321
000340 49 a9 44 3b 07 58 6b 3e a3 74 8e 3e e4 18 4f 3e
       0.0030008128 0.22982799 0.27823362 0.20224339
000350 51 db d5 bc 52 9c 72 3c 0a 2f 43 3d cf 2d 70 bd
       -0.026105555 0.0148077775 0.04765228 -0.058637436
000360 1a 91 0e be d5 93 19 bd af 6a e9 be c7 74 8e 3c
       -0.1392254 -0.0374945 -0.45589206 0.017389668
000370 ce 9c 48 3e 7c 66 a3 3e 03 30 46 be 8f 14 09 bc
       0.19591066 0.31914127 -0.19354253 -0.008366718
000380 db 03 ac 3e c1 0b 0c be 96 db 3c 3e 56 ca 28 bd
       0.3359669 -0.13676359 0.1844314 -0.041208588
000390 6d 17 0f 3e 3d 2a c5 3e 83 a6 f1 3e 79 2c f0 3e
       0.1397378 0.38508788 0.4719735 0.4690893
0003a0 ed 13 6b 3e 46 1b 94 3e 24 0f d5 3e 60 bf b2 3e
       0.2295682 0.28927058 0.41613114 0.34911633
0003b0 08 7c ba be 32 07 16 bf 66 07 ec bd 31 a8 68 bd
       -0.36422753 -0.5860473 -0.11524849 -0.056801025
0003c0 7d e3 ee be 41 45 33 bf b6 f8 8e be b5 fe 06 3d
       -0.46657935 -0.7002755 -0.27924126 0.03295775
0003d0 ab b1 66 be a9 da a8 be ea 9b 93 bd 56 d5 5a 3c
       -0.22528712 -0.32979324 -0.072074726 0.013356527
0003e0 2d 27 f6 3d f0 d9 88 bd 78 f3 7e be 11 dc 80 be
       0.12019191 -0.06682193 -0.24897563 -0.25167897
0003f0 4b b4 a5 be 6c bc bc be 92 d8 28 3d 43 10 90 be
       -0.32364115 -0.36862504 0.041222163 -0.28137407

prepack_folding._jit_pass_packed_weight_1 f4 [16]
000000 fe 24 b1 3c 5d a8 7b be 41 1e 01 be 5b f1 21 be
       0.021624085 -0.24575944 -0.12609197 -0.15814726
000010 d8 68 46 be 91 a0 6c bd 0f 21 27 3c a7 d0 86 3d
       -0.19375932 -0.057770316 0.010200753 0.06582766
000020 69 19 b5 be 45 22 d5 bd 7c 1e b1 bd 86 a6 82 3e
       -0.3537095 -0.10406927 -0.086483926 0.25517672
000030 d5 0a 21 3e 5a 9d 02 3d 51 65 e5 3d 85 d5 b4 bc
       0.15726788 0.031888343 0.11200965 -0.02207447
